vignettes/model.ckpt (torch_old, 31866 bytes, 2 tensors)

weight f4 [10, 784]
000000 aa c1 e9 bc f8 f5 90 3c 8e 6b da bc d2 cc e2 3c
       -0.028534729 0.017695412 -0.026662614 0.027685557
000010 4e 86 c7 3c 1e cd c5 3c c2 3e ba 3c 58 f0 20 3c
       0.024356034 0.024145659 0.022735003 0.009822927
000020 0e c0 d5 bc 00 0e 04 3a a4 63 2f 3c a6 34 b6 3c
       -0.026092555 0.00050374866 0.0107049085 0.022241902
000030 f5 65 0f 3d 02 56 52 b9 3d 00 81 3c d7 40 fa 3c
       0.035009343 -0.00020059201 0.015747184 0.030548496
000040 20 06 1c bc e4 5b 06 3c e4 a6 b6 bb 47 13 03 bd
       -0.009522945 0.008200619 -0.005574094 -0.032000806
000050 12 8b 32 bc d6 b5 dc 3c d2 4c 6d bc 41 81 f1 bc
       -0.010897415 0.026942175 -0.014483647 -0.029480578
000060 80 15 47 bb 27 2f 0d 3d 78 99 4e 3c 14 62 10 3c
       -0.0030377805 0.034468796 0.012609832 0.008812446
000070 80 83 80 3b b0 34 93 3c c0 4f c7 bc a8 f5 b2 bc
       0.003921926 0.01796946 -0.02433002 -0.021845654
000080 20 95 01 3b de 00 0e 3d 83 e2 85 3c 75 db 50 3c
       0.0019772723 0.034668796 0.01634336 0.012747635
000090 9e 4a 37 3b 1e b4 46 b9 4f 9c a7 3c 48 be 2d bc
       0.002796806 -0.0001894985 0.020460276 -0.010604449
0000a0 cd e7 e6 bc 27 2a b8 bc 4f 7f 99 bc 81 b6 17 3c
       -0.028186703 -0.022481037 -0.018737463 0.009259821
0000b0 d2 c2 d8 bc 0c f7 ff 3b 2d c3 62 bb dd 9f ce bc
       -0.026460085 0.0078114327 -0.0034601197 -0.025222713
0000c0 c5 fd 83 bc 9d 01 01 3d ed 79 0c bd 47 c2 d9 bc
       -0.016112218 0.03149568 -0.034295965 -0.026581896
0000d0 8a 87 fb bc 08 23 f1 bc 78 e1 9d 3b da 0a f1 3c
       -0.030704278 -0.02943565 0.0048181377 0.02942412
0000e0 b0 d6 64 bb 80 7d fc 3b e9 f7 e9 bb 7d 43 d3 3c
       -0.0034918003 0.0077053905 -0.007140149 0.025789017
0000f0 bf 4a 1f 3a bf f6 9e bc 73 5e 7f bc f3 a4 9a 3c
       0.00060765067 -0.019404767 -0.015586483 0.018877482
000100 42 d9 ad b9 d4 38 0a 3d 1b 28 0e 3d 48 71 89 3c
       -0.00033159 0.0337456 0.034706216 0.01677765
000110 91 7a 03 bd 8b f2 ee 3c 90 fc b2 bc bb b6 3a bc
       -0.03209931 0.029168388 -0.021848947 -0.011396105
000120 be 6a 3c bc ee b2 bb bc 72 14 1b bd 6c 53 0b bd
       -0.011500059 -0.022912469 -0.037861295 -0.034015104
000130 f3 1e c8 bb e8 9f 05 3c 9d bc 09 bd 26 ef 86 3b
       -0.006107205 0.0081558 -0.03362714 0.004117864
000140 d2 cf 0d 3d d3 2f 05 bd dc d9 42 bc 4e ee f6 3c
       0.03462202 -0.03251631 -0.011892762 0.03014293
000150 5a ad a2 3c 0d 06 12 bd e7 f3 6f 3c 73 d9 c8 3c
       0.019858051 -0.0356503 0.014645553 0.02451775
000160 74 cb 30 bc cb ff d3 3c 03 0e 8f bc 9e 4e d2 3c
       -0.0107906945 0.025878808 -0.017462736 0.025672253
000170 71 f6 58 3c 5b b2 b4 3c 96 16 b0 bc 55 86 a9 3b
       0.01324235 0.022057703 -0.021495145 0.0051734843
000180 ec ca d6 bc 8f 86 a5 ba 19 a1 5a bc 83 3b 4f bb
       -0.026219808 -0.0012628603 -0.013344073 -0.0031621165
000190 d0 61 0c 3c 28 9b 34 bd 57 cd cc bc 03 0a 1d bd
       0.008568242 -0.04409328 -0.025000257 -0.038339626
0001a0 79 2a 93 3b 60 83 33 3c ab 39 9f bc dd 19 91 3c
       0.004491147 0.010956615 -0.019436678 0.017712528
0001b0 52 ec ff bc 35 ca 61 bc 6b 81 b3 3b 60 4a 1d 3c
       -0.031240616 -0.01378112 0.0054780743 0.009600252
0001c0 90 ce b3 3c 11 6a 2c 39 7c 69 10 bc 60 89 bb bb
       0.021949083 0.00016442711 -0.008814212 -0.0057231635
0001d0 6f 94 02 bd 1d e5 64 bc 9c 38 cf bc b1 23 0d 3b
       -0.03187984 -0.0139706405 -0.025295548 0.0021536166
0001e0 59 b0 62 bb 78 b0 8b 3c 60 4e e5 bc b4 ea 89 3c
       -0.0034589975 0.01705192 -0.027991474 0.016835548
0001f0 a2 9d a5 3c a3 1b db 3a 0e ef e4 3b de b3 8e 3c
       0.020216767 0.001671661 0.0069865054 0.017419752
000200 d1 8e f0 3c 6c 67 3d 3b 6f df 91 3b 09 f2 cf 3c
       0.029364975 0.0028900756 0.004451684 0.025383966
000210 5c 0f 10 3d 6d 2d 06 bd 08 e1 97 bc c5 65 c0 bb
       0.035170898 -0.032758165 -0.01853992 -0.005871507
000220 e4 c9 4e 3c 61 2b 3f bc 5a 1b 7c ba b3 f0 10 3d
       0.012621377 -0.011668057 -0.0009617113 0.0353858
000230 17 c7 08 bd 70 1a 89 3c 16 57 33 bc 8d 9d 1a bc
       -0.033392992 0.01673624 -0.010946056 -0.009436977
000240 6d c4 a7 3c f0 88 f9 bb fc b8 ab 3b 17 c3 5a bc
       0.020479405 -0.007615201 0.0052405577 -0.013352177
000250 d0 43 93 3c a7 5c 0d 3c e0 d8 f4 bb 1b 24 fb bc
       0.017976671 0.008628047 -0.0074721426 -0.030656865
000260 d7 f7 bc bc 77 d2 f7 3c a0 81 ab 3c 02 05 08 3d
       -0.023067398 0.030251725 0.020935833 0.0332079
000270 e9 29 68 bb 30 76 c7 3c 68 ee 72 3c 4e e3 00 3d
       -0.003542537 0.024348348 0.014827348 0.031466775
000280 46 3f f5 bc 41 08 30 bc 7c f0 05 bc 53 24 13 bc
       -0.029937398 -0.010744155 -0.008175012 -0.008980828
000290 5a 87 94 bb 09 3c db bc 7b c3 d6 bc 65 7b 09 3d
       -0.0045327367 -0.026762025 -0.02621626 0.033564944
0002a0 43 4b 9d bc c0 0e 12 bd d6 a3 39 bb fd 19 6f 3c
       -0.019200927 -0.035658598 -0.0028326414 0.014593598
0002b0 8d 4c 8c bb dc 4a eb bc c9 fd 50 bc e5 ca 29 bd
       -0.0042815865 -0.02872222 -0.01275582 -0.04145326
0002c0 e6 fe 81 bc 06 3e c7 3a 18 7f fe bc 00 e1 3d 3c
       -0.015868615 0.001520098 -0.031066462 0.011589289
0002d0 8c 02 45 bc be c9 1c 3d 65 8e 13 3d 8b 68 50 3c
       -0.012024533 0.038278334 0.03602447 0.0127202375
0002e0 1c ac f4 bb fc 37 e2 3c 9b 1f 3c 3d 7c 1e 57 ba
       -0.007466806 0.027614586 0.04592858 -0.00082061416
0002f0 65 cd e7 3c 57 ea 1a 3c cf 36 f0 3c dd 1f b6 3b
       0.028296182 0.009455285 0.02932301 0.0055579976
000300 66 77 e0 bc e9 9a c1 ba 01 90 97 3c 7e b8 10 bd
       -0.027400684 -0.0014770898 0.018501284 -0.035332195
000310 70 ec e8 bc aa 64 eb 3b d0 14 4b b9 01 b7 05 3a
       -0.028433055 0.007183631 -0.00019367342 0.0005100817
000320 b6 08 0a 3a 0f 3f 8e bb af f6 41 bc a4 33 07 3c
       0.000526558 -0.0043410133 -0.011838599 0.008252058
000330 71 76 22 3c 17 f2 1e bd 72 5a f2 bc 31 a8 83 bc
       0.009915934 -0.038805094 -0.029584143 -0.01607141
000340 ba 3d a8 3c ea 40 91 3c 3b 02 a4 3c dc e3 5a 3c
       0.020537246 0.017731149 0.020020595 0.01335999
000350 a9 dd 2c 3d 09 7d 4e 3d 8c 84 ee 3c e0 79 7d 3d
       0.04220358 0.05041221 0.029115938 0.061883807
000360 f1 9a 5f 3c f1 08 39 3d 04 91 a7 bc 72 bc 9d bc
       0.013647781 0.045174543 -0.020454891 -0.019254897
000370 0d b4 74 3c f2 be 24 bc 44 5f a4 3b 34 9f 14 3b
       0.014935506 -0.010055291 0.0050162394 0.00226779
000380 08 bd bb bc b9 04 01 bd 74 58 0f 3c 1f 24 13 bd
       -0.022917286 -0.031498645 0.008749116 -0.03592312
000390 37 78 cf ba f3 7e 51 3b dd 67 a0 3b 18 b3 8b bc
       -0.0015828673 0.0031966537 0.004895194 -0.017053172
0003a0 1a 6a bf 3c b7 ee c7 bc 0b 90 8e 3c 4a ed 55 bb
       0.023366023 -0.02440582 0.01740267 -0.0032642656
0003b0 ef 21 13 3d d9 ca 1f 3d e8 88 a4 3c 76 76 f9 3c
       0.035921033 0.03901181 0.020084813 0.030451994
0003c0 83 f9 9a 3c 57 fc 50 3c 26 4a ab ba fa 86 7a 3d
       0.018917805 0.012755475 -0.0013068363 0.06116388
0003d0 49 2c 81 3d 10 e4 57 3c 00 6b 3c bc af 6d 83 b9
       0.06307275 0.013176933 -0.01150012 -0.00025067988
0003e0 67 fc 13 bd 3a c1 47 bc 0f e2 e2 bb 38 22 a5 bc
       -0.03612938 -0.012192065 -0.006923921 -0.020157918
0003f0 f9 43 c8 3c 23 14 ca 3c 3a 75 fd bc 0a 77 8a 3c
       0.024446474 0.024667805 -0.030939687 0.016902465

bias f4 [10]
000000 82 da 1a bd 05 74 a4 3d e4 f1 9a bc 4c b2 34 bb
       -0.03780604 0.080299415 -0.01891417 -0.0027572094
000010 f4 e9 5c bc a3 8a 30 3d 2a e3 11 bc ed 27 1c 3c
       -0.013483513 0.043100964 -0.008904258 0.009531003
000020 e1 ac 3e bc fb 09 f1 bc
       -0.011637897 -0.029423704
